Date - 19 Dec, 2017
Time - 19:00

Model Summary -
    ____________________________________________________________________________________________________
    Layer (type)                     Output Shape          Param #     Connected to
    ====================================================================================================
    input_1 (InputLayer)             (None, 20, 300)       0
    ____________________________________________________________________________________________________
    input_2 (InputLayer)             (None, 23, 300)       0
    ____________________________________________________________________________________________________
    input_3 (InputLayer)             (None, 23, 300)       0
    ____________________________________________________________________________________________________
    input_4 (InputLayer)             (None, 23, 300)       0
    ____________________________________________________________________________________________________
    input_5 (InputLayer)             (None, 23, 300)       0
    ____________________________________________________________________________________________________
    input_6 (InputLayer)             (None, 23, 300)       0
    ____________________________________________________________________________________________________
    input_7 (InputLayer)             (None, 23, 300)       0
    ____________________________________________________________________________________________________
    input_8 (InputLayer)             (None, 23, 300)       0
    ____________________________________________________________________________________________________
    input_9 (InputLayer)             (None, 23, 300)       0
    ____________________________________________________________________________________________________
    input_10 (InputLayer)            (None, 23, 300)       0
    ____________________________________________________________________________________________________
    input_11 (InputLayer)            (None, 23, 300)       0
    ____________________________________________________________________________________________________
    input_12 (InputLayer)            (None, 23, 300)       0
    ____________________________________________________________________________________________________
    input_13 (InputLayer)            (None, 23, 300)       0
    ____________________________________________________________________________________________________
    input_14 (InputLayer)            (None, 23, 300)       0
    ____________________________________________________________________________________________________
    input_15 (InputLayer)            (None, 23, 300)       0
    ____________________________________________________________________________________________________
    input_16 (InputLayer)            (None, 23, 300)       0
    ____________________________________________________________________________________________________
    input_17 (InputLayer)            (None, 23, 300)       0
    ____________________________________________________________________________________________________
    input_18 (InputLayer)            (None, 23, 300)       0
    ____________________________________________________________________________________________________
    input_19 (InputLayer)            (None, 23, 300)       0
    ____________________________________________________________________________________________________
    input_20 (InputLayer)            (None, 23, 300)       0
    ____________________________________________________________________________________________________
    input_21 (InputLayer)            (None, 23, 300)       0
    ____________________________________________________________________________________________________
    input_22 (InputLayer)            (None, 23, 300)       0
    ____________________________________________________________________________________________________
    lstm_1 (LSTM)                    (None, 64)            93440       input_1[0][0]
    ____________________________________________________________________________________________________
    lstm_2 (LSTM)                    (None, 64)            93440       input_2[0][0]
                                                                       input_3[0][0]
                                                                       input_4[0][0]
                                                                       input_5[0][0]
                                                                       input_6[0][0]
                                                                       input_7[0][0]
…
                                                                       input_17[0][0]
                                                                       input_18[0][0]
                                                                       input_19[0][0]
                                                                       input_20[0][0]
                                                                       input_21[0][0]
                                                                       input_22[0][0]
    ____________________________________________________________________________________________________
    concatenate_1 (Concatenate)      (None, 128)           0           lstm_1[0][0]
                                                                       lstm_2[0][0]
    ____________________________________________________________________________________________________
    concatenate_2 (Concatenate)      (None, 128)           0           lstm_1[0][0]
                                                                       lstm_2[1][0]
    ____________________________________________________________________________________________________
    concatenate_3 (Concatenate)      (None, 128)           0           lstm_1[0][0]
                                                                       lstm_2[2][0]
    ____________________________________________________________________________________________________
    concatenate_4 (Concatenate)      (None, 128)           0           lstm_1[0][0]
                                                                       lstm_2[3][0]
    ____________________________________________________________________________________________________
    concatenate_5 (Concatenate)      (None, 128)           0           lstm_1[0][0]
                                                                       lstm_2[4][0]
    ____________________________________________________________________________________________________
    concatenate_6 (Concatenate)      (None, 128)           0           lstm_1[0][0]
                                                                       lstm_2[5][0]
    ____________________________________________________________________________________________________
    concatenate_7 (Concatenate)      (None, 128)           0           lstm_1[0][0]
                                                                       lstm_2[6][0]
    ____________________________________________________________________________________________________
    concatenate_8 (Concatenate)      (None, 128)           0           lstm_1[0][0]
                                                                       lstm_2[7][0]
    ____________________________________________________________________________________________________
    concatenate_9 (Concatenate)      (None, 128)           0           lstm_1[0][0]
                                                                       lstm_2[8][0]
    ____________________________________________________________________________________________________
    concatenate_10 (Concatenate)     (None, 128)           0           lstm_1[0][0]
                                                                       lstm_2[9][0]
    ____________________________________________________________________________________________________
    concatenate_11 (Concatenate)     (None, 128)           0           lstm_1[0][0]
                                                                       lstm_2[10][0]
    ____________________________________________________________________________________________________
    concatenate_12 (Concatenate)     (None, 128)           0           lstm_1[0][0]
                                                                       lstm_2[11][0]
    ____________________________________________________________________________________________________
    concatenate_13 (Concatenate)     (None, 128)           0           lstm_1[0][0]
                                                                       lstm_2[12][0]
    ____________________________________________________________________________________________________
    concatenate_14 (Concatenate)     (None, 128)           0           lstm_1[0][0]
                                                                       lstm_2[13][0]
    ____________________________________________________________________________________________________
    concatenate_15 (Concatenate)     (None, 128)           0           lstm_1[0][0]
                                                                       lstm_2[14][0]
    ____________________________________________________________________________________________________
    concatenate_16 (Concatenate)     (None, 128)           0           lstm_1[0][0]
                                                                       lstm_2[15][0]
    ____________________________________________________________________________________________________
    concatenate_17 (Concatenate)     (None, 128)           0           lstm_1[0][0]
                                                                       lstm_2[16][0]
    ____________________________________________________________________________________________________
    concatenate_18 (Concatenate)     (None, 128)           0           lstm_1[0][0]
                                                                       lstm_2[17][0]
    ____________________________________________________________________________________________________
    concatenate_19 (Concatenate)     (None, 128)           0           lstm_1[0][0]
                                                                       lstm_2[18][0]
    ____________________________________________________________________________________________________
    concatenate_20 (Concatenate)     (None, 128)           0           lstm_1[0][0]
                                                                       lstm_2[19][0]
    ____________________________________________________________________________________________________
    concatenate_21 (Concatenate)     (None, 128)           0           lstm_1[0][0]
                                                                       lstm_2[20][0]
    ____________________________________________________________________________________________________
    dense_1 (Dense)                  (None, 64)            8256        concatenate_1[0][0]
                                                                       concatenate_2[0][0]
                                                                       concatenate_3[0][0]
                                                                       concatenate_4[0][0]
                                                                       concatenate_5[0][0]
                                                                       concatenate_6[0][0]
…
