Date - 22 Dec, 2017
Time - 18:00

Model Summary -
    __________________________________________________________________________________________________
	Layer (type)                    Output Shape         Param #     Connected to                     
	==================================================================================================
	input_1 (InputLayer)            (None, 24, 300)      0                                            
	__________________________________________________________________________________________________
	input_2 (InputLayer)            (None, 27, 300)      0                                            
	__________________________________________________________________________________________________
	input_3 (InputLayer)            (None, 27, 300)      0                                            
	__________________________________________________________________________________________________
	input_4 (InputLayer)            (None, 27, 300)      0                                            
	__________________________________________________________________________________________________
	input_5 (InputLayer)            (None, 27, 300)      0                                            
	__________________________________________________________________________________________________
	input_6 (InputLayer)            (None, 27, 300)      0                                            
	__________________________________________________________________________________________________
	input_7 (InputLayer)            (None, 27, 300)      0                                            
	__________________________________________________________________________________________________
	input_8 (InputLayer)            (None, 27, 300)      0                                            
	__________________________________________________________________________________________________
	input_9 (InputLayer)            (None, 27, 300)      0                                            
	__________________________________________________________________________________________________
	input_10 (InputLayer)           (None, 27, 300)      0                                            
	__________________________________________________________________________________________________
	input_11 (InputLayer)           (None, 27, 300)      0                                            
	__________________________________________________________________________________________________
	input_12 (InputLayer)           (None, 27, 300)      0                                            
	__________________________________________________________________________________________________
	input_13 (InputLayer)           (None, 27, 300)      0                                            
	__________________________________________________________________________________________________
	input_14 (InputLayer)           (None, 27, 300)      0                                            
	__________________________________________________________________________________________________
	input_15 (InputLayer)           (None, 27, 300)      0                                            
	__________________________________________________________________________________________________
	input_16 (InputLayer)           (None, 27, 300)      0                                            
	__________________________________________________________________________________________________
	input_17 (InputLayer)           (None, 27, 300)      0                                            
	__________________________________________________________________________________________________
	input_18 (InputLayer)           (None, 27, 300)      0                                            
	__________________________________________________________________________________________________
	input_19 (InputLayer)           (None, 27, 300)      0                                            
	__________________________________________________________________________________________________
	input_20 (InputLayer)           (None, 27, 300)      0                                            
	__________________________________________________________________________________________________
	input_21 (InputLayer)           (None, 27, 300)      0                                            
	__________________________________________________________________________________________________
	input_22 (InputLayer)           (None, 27, 300)      0                                            
	__________________________________________________________________________________________________
	lstm_1 (LSTM)                   (None, 64)           93440       input_1[0][0]                    
	__________________________________________________________________________________________________
	lstm_2 (LSTM)                   (None, 64)           93440       input_2[0][0]                    
                	                                                 input_3[0][0]                    
        	                                                         input_4[0][0]                    
	                                                                 input_5[0][0]                    
                                                        	         input_6[0][0]                    
…
                                        	                         input_18[0][0]                   
                                	                                 input_19[0][0]                   
                        	                                         input_20[0][0]                   
                	                                                 input_21[0][0]                   
        	                                                         input_22[0][0]                   
	__________________________________________________________________________________________________
	dot_1 (Dot)                     (None, 1)            0           lstm_1[0][0]                     
	                                                                 lstm_2[0][0]                     
	__________________________________________________________________________________________________
	dot_2 (Dot)                     (None, 1)            0           lstm_1[0][0]                     
	                                                                 lstm_2[1][0]                     
	__________________________________________________________________________________________________
	dot_3 (Dot)                     (None, 1)            0           lstm_1[0][0]                     
	                                                                 lstm_2[2][0]                     
	__________________________________________________________________________________________________
	dot_4 (Dot)                     (None, 1)            0           lstm_1[0][0]                     
	                                                                 lstm_2[3][0]                     
	__________________________________________________________________________________________________
	dot_5 (Dot)                     (None, 1)            0           lstm_1[0][0]                     
	                                                                 lstm_2[4][0]                     
	__________________________________________________________________________________________________
	dot_6 (Dot)                     (None, 1)            0           lstm_1[0][0]                     
        	                                                         lstm_2[5][0]                     
	__________________________________________________________________________________________________
	dot_7 (Dot)                     (None, 1)            0           lstm_1[0][0]                     
	                                                                 lstm_2[6][0]                     
	__________________________________________________________________________________________________
	dot_8 (Dot)                     (None, 1)            0           lstm_1[0][0]                     
	                                                                 lstm_2[7][0]                     
	__________________________________________________________________________________________________
	dot_9 (Dot)                     (None, 1)            0           lstm_1[0][0]                     
	                                                                 lstm_2[8][0]                     
	__________________________________________________________________________________________________
	dot_10 (Dot)                    (None, 1)            0           lstm_1[0][0]                     
	                                                                 lstm_2[9][0]                     
	__________________________________________________________________________________________________
	dot_11 (Dot)                    (None, 1)            0           lstm_1[0][0]                     
	                                                                 lstm_2[10][0]                    
	__________________________________________________________________________________________________
	dot_12 (Dot)                    (None, 1)            0           lstm_1[0][0]                     
	                                                                 lstm_2[11][0]                    
	__________________________________________________________________________________________________
	dot_13 (Dot)                    (None, 1)            0           lstm_1[0][0]                     
        	                                                         lstm_2[12][0]                    
	__________________________________________________________________________________________________
	dot_14 (Dot)                    (None, 1)            0           lstm_1[0][0]                     
	                                                                 lstm_2[13][0]                    
	__________________________________________________________________________________________________
	dot_15 (Dot)                    (None, 1)            0           lstm_1[0][0]                     
	                                                                 lstm_2[14][0]                    
	__________________________________________________________________________________________________
	dot_16 (Dot)                    (None, 1)            0           lstm_1[0][0]                     
	                                                                 lstm_2[15][0]                    
	__________________________________________________________________________________________________
	dot_17 (Dot)                    (None, 1)            0           lstm_1[0][0]                     
	                                                                 lstm_2[16][0]                    
	__________________________________________________________________________________________________
	dot_18 (Dot)                    (None, 1)            0           lstm_1[0][0]                     
	                                                                 lstm_2[17][0]                    
	__________________________________________________________________________________________________
	dot_19 (Dot)                    (None, 1)            0           lstm_1[0][0]                     
	                                                                 lstm_2[18][0]                    
	__________________________________________________________________________________________________
	dot_20 (Dot)                    (None, 1)            0           lstm_1[0][0]                     
	                                                                 lstm_2[19][0]                    
	__________________________________________________________________________________________________
	dot_21 (Dot)                    (None, 1)            0           lstm_1[0][0]                     
	                                                                 lstm_2[20][0]                    
	__________________________________________________________________________________________________
	repeat_vector_1 (RepeatVector)  (None, 20, 1)        0           dot_1[0][0]                      
	__________________________________________________________________________________________________
	concatenate_1 (Concatenate)     (None, 20)           0           dot_2[0][0]                      
                	                                                 dot_3[0][0]                      
        	                                                         dot_4[0][0]                      
                                                                	 dot_5[0][0]                      
                                                        	         dot_6[0][0]                      
…
